…
'>, 'output_dir': '/Users/brettin/local/git/T29res/Output/EXP000/RUN000', 'rng_seed': 7102, 'timeout': -1}
df_train shape: (14288, 6213)
df_test shape: (3572, 6213)
X_train shape: (14288, 6212)
X_test shape: (3572, 6212)
Y_train shape: (14288, 2)
Y_test shape: (3572, 2)
__________________________________________________________________________________________________
Layer (type)                    Output Shape         Param #     Connected to                     
==================================================================================================
input_1 (InputLayer)            (None, 6212)         0                                            
__________________________________________________________________________________________________
dense_1 (Dense)                 (None, 2000)         12426000    input_1[0][0]                    
__________________________________________________________________________________________________
dense_2 (Dense)                 (None, 1000)         2001000     dense_1[0][0]                    
__________________________________________________________________________________________________
dropout_1 (Dropout)             (None, 1000)         0           dense_2[0][0]                    
__________________________________________________________________________________________________
dense_3 (Dense)                 (None, 1000)         1001000     dropout_1[0][0]                  
__________________________________________________________________________________________________
add_1 (Add)                     (None, 1000)         0           dropout_1[0][0]                  
                                                                 dense_3[0][0]                    
__________________________________________________________________________________________________
dropout_2 (Dropout)             (None, 1000)         0           add_1[0][0]                      
__________________________________________________________________________________________________
dense_4 (Dense)                 (None, 1000)         1001000     dropout_2[0][0]                  
__________________________________________________________________________________________________
add_2 (Add)                     (None, 1000)         0           dropout_2[0][0]                  
                                                                 dense_4[0][0]                    
__________________________________________________________________________________________________
dropout_3 (Dropout)             (None, 1000)         0           add_2[0][0]                      
__________________________________________________________________________________________________
dense_5 (Dense)                 (None, 1000)         1001000     dropout_3[0][0]                  
__________________________________________________________________________________________________
add_3 (Add)                     (None, 1000)         0           dropout_3[0][0]                  
                                                                 dense_5[0][0]                    
__________________________________________________________________________________________________
dropout_4 (Dropout)             (None, 1000)         0           add_3[0][0]                      
__________________________________________________________________________________________________
dense_6 (Dense)                 (None, 1000)         1001000     dropout_4[0][0]                  
__________________________________________________________________________________________________
add_4 (Add)                     (None, 1000)         0           dropout_4[0][0]                  
                                                                 dense_6[0][0]                    
__________________________________________________________________________________________________
dropout_5 (Dropout)             (None, 1000)         0           add_4[0][0]                      
__________________________________________________________________________________________________
dense_7 (Dense)                 (None, 500)          500500      dropout_5[0][0]                  
__________________________________________________________________________________________________
dropout_6 (Dropout)             (None, 500)          0           dense_7[0][0]                    
__________________________________________________________________________________________________
dense_8 (Dense)                 (None, 250)          125250      dropout_6[0][0]                  
__________________________________________________________________________________________________
dropout_7 (Dropout)             (None, 250)          0           dense_8[0][0]                    
__________________________________________________________________________________________________
dense_9 (Dense)                 (None, 125)          31375       dropout_7[0][0]                  
__________________________________________________________________________________________________
dropout_8 (Dropout)             (None, 125)          0           dense_9[0][0]                    
__________________________________________________________________________________________________
dense_10 (Dense)                (None, 62)           7812        dropout_8[0][0]                  
__________________________________________________________________________________________________
dropout_9 (Dropout)             (None, 62)           0           dense_10[0][0]                   
__________________________________________________________________________________________________
dense_11 (Dense)                (None, 30)           1890        dropout_9[0][0]                  
__________________________________________________________________________________________________
dropout_10 (Dropout)            (None, 30)           0           dense_11[0][0]                   
__________________________________________________________________________________________________
dense_12 (Dense)                (None, 2)            62          dropout_10[0][0]                 
==================================================================================================
Total params: 19,097,889
Trainable params: 19,097,889
Non-trainable params: 0
__________________________________________________________________________________________________
Train on 14288 samples, validate on 3572 samples
Epoch 1/100

   64/14288 [..............................] - ETA: 2:37 - loss: 0.7372 - acc: 0.5312
…
